…
ime=None, tracker=tracktrack.yaml, translate=0.1, val=True, verbose=True, vid_stride=1, visualize=False, warmup_bias_lr=0.1, warmup_epochs=3.0, warmup_momentum=0.8, weight_decay=0.0005, workers=8, workspace=None
94.6s	37	
[KDownloading https://ultralytics.com/assets/Arial.ttf to '/root/.config/Ultralytics/Arial.ttf': 100% ━━━━━━━━━━━━ 755.1KB 102.1MB/s 0.0s
94.6s	38	Overriding model.yaml nc=80 with nc=9
94.6s	39	
94.6s	40	                   from  n    params  module                                       arguments                     
94.6s	41	  0                  -1  1      1856  ultralytics.nn.modules.conv.Conv             [3, 64, 3, 2]                 
94.6s	42	  1                  -1  1     73984  ultralytics.nn.modules.conv.Conv             [64, 128, 3, 2]               
94.6s	43	  2                  -1  1    111872  ultralytics.nn.modules.block.C3k2            [128, 256, 1, True, 0.25]     
94.6s	44	  3                  -1  1    590336  ultralytics.nn.modules.conv.Conv             [256, 256, 3, 2]              
94.6s	45	  4                  -1  1    444928  ultralytics.nn.modules.block.C3k2            [256, 512, 1, True, 0.25]     
94.7s	46	  5                  -1  1   2360320  ultralytics.nn.modules.conv.Conv             [512, 512, 3, 2]              
94.7s	47	  6                  -1  1   1380352  ultralytics.nn.modules.block.C3k2            [512, 512, 1, True]           
94.7s	48	  7                  -1  1   2360320  ultralytics.nn.modules.conv.Conv             [512, 512, 3, 2]              
94.7s	49	  8                  -1  1   1380352  ultralytics.nn.modules.block.C3k2            [512, 512, 1, True]           
94.7s	50	  9                  -1  1    656896  ultralytics.nn.modules.block.SPPF            [512, 512, 5, 3, True]        
94.7s	51	 10                  -1  1    990976  ultralytics.nn.modules.block.C2PSA           [512, 512, 1]                 
94.7s	52	 11                  -1  1         0  torch.nn.modules.upsampling.Upsample         [None, 2, 'nearest']          
94.7s	53	 12             [-1, 6]  1         0  ultralytics.nn.modules.conv.Concat           [1]                           
94.8s	54	 13                  -1  1   1642496  ultralytics.nn.modules.block.C3k2            [1024, 512, 1, True]          
94.8s	55	 14                  -1  1         0  torch.nn.modules.upsampling.Upsample         [None, 2, 'nearest']          
94.8s	56	 15             [-1, 4]  1         0  ultralytics.nn.modules.conv.Concat           [1]                           
94.8s	57	 16                  -1  1    542720  ultralytics.nn.modules.block.C3k2            [1024, 256, 1, True]          
94.8s	58	 17                  -1  1    590336  ultralytics.nn.modules.conv.Conv             [256, 256, 3, 2]              
94.8s	59	 18            [-1, 13]  1         0  ultralytics.nn.modules.conv.Concat           [1]                           
94.8s	60	 19                  -1  1   1511424  ultralytics.nn.modules.block.C3k2            [768, 512, 1, True]           
94.8s	61	 20                  -1  1   2360320  ultralytics.nn.modules.conv.Conv             [512, 512, 3, 2]              
94.8s	62	 21            [-1, 10]  1         0  ultralytics.nn.modules.conv.Concat           [1]                           
94.9s	63	 22                  -1  1   1974784  ultralytics.nn.modules.block.C3k2            [1024, 512, 1, True, 0.5, True]
94.9s	64	 23        [16, 19, 22]  1   8010071  ultralytics.nn.modules.head.Segment26        [9, 32, 256, 1, True, [256, 512, 512]]
95.7s	65	YOLO26m-seg summary: 329 layers, 26,984,343 parameters, 26,984,343 gradients, 131.9 GFLOPs
95.7s	66	
95.7s	67	Transferred 890/904 items from pretrained weights
95.7s	68	[34m[1mDDP:[0m debug command /usr/bin/python3 -m torch.distributed.run --nproc_per_node 2 --master_port 58005 /root/.config/Ultralytics/DDP/_temp_x2rrsc5s140361119456560.py
100.2s	69	Ultralytics 8.4.90 🚀 Python-3.12.13 torch-2.10.0+cu128 CUDA:0 (Tesla T4, 14912MiB)
…
